…
[12-15 18:27:35|INFO|cosmos_transfer2_5/cosmos_transfer2/_src/predict2/text_encoders/text_encoder.py:113:__init__] Finished loading checkpoint from /home/nvidia/.cache/huggingface/hub/models--nvidia--Cosmos-Reason1-7B/snapshots/3210bec0495fdc7a8d3dbb8d58da5711eab4b423.
[12-15 18:27:35|INFO|cosmos_transfer2_5/cosmos_transfer2/_src/predict2/text_encoders/text_encoder.py:116:__init__] Text encoder model instantiated
[12-15 18:27:35|INFO|cosmos_transfer2_5/cosmos_transfer2/_src/transfer2/models/vid2vid_model_control_vace_rectified_flow.py:69:__init__] MinimalV4LVGControlVaceDiT(
  (x_embedder): PatchEmbed(
    (proj): Sequential(
      (0): Rearrange('b c (t r) (h m) (w n) -> b t h w (c r m n)', r=1, m=2, n=2)
      (1): Linear(in_features=72, out_features=2048, bias=False)
    )
  )
  (pos_embedder): VideoRopePosition3DEmb()
  (t_embedder): Sequential(
    (0): Timesteps()
    (1): TimestepEmbedding(
      (linear_1): Linear(in_features=2048, out_features=2048, bias=False)
      (activation): SiLU()
      (linear_2): Linear(in_features=2048, out_features=6144, bias=False)
    )
  )
  (blocks): ModuleList(
    (0-27): 28 x CheckpointWrapper(
      (_checkpoint_wrapped_module): ControlAwareDiTBlock(
        (layer_norm_self_attn): LayerNorm((2048,), eps=1e-06, elementwise_affine=False)
        (self_attn): Attention(
          (q_proj): Linear(in_features=2048, out_features=2048, bias=False)
          (q_norm): RMSNorm()
          (k_proj): Linear(in_features=2048, out_features=2048, bias=False)
          (k_norm): RMSNorm()
          (v_proj): Linear(in_features=2048, out_features=2048, bias=False)
          (v_norm): Identity()
          (output_proj): Linear(in_features=2048, out_features=2048, bias=False)
          (output_dropout): Identity()
          (attn_op): MinimalA2AAttnOp()
        )
        (layer_norm_cross_attn): LayerNorm((2048,), eps=1e-06, elementwise_affine=False)
        (cross_attn): Attention(
          (q_proj): Linear(in_features=2048, out_features=2048, bias=False)
          (q_norm): RMSNorm()
          (k_proj): Linear(in_features=1024, out_features=2048, bias=False)
          (k_norm): RMSNorm()
          (v_proj): Linear(in_features=1024, out_features=2048, bias=False)
          (v_norm): Identity()
          (output_proj): Linear(in_features=2048, out_features=2048, bias=False)
          (output_dropout): Identity()
          (attn_op): MinimalA2AAttnOp()
        )
        (layer_norm_mlp): LayerNorm((2048,), eps=1e-06, elementwise_affine=False)
        (mlp): GPT2FeedForward(
          (activation): GELU(approximate='none')
          (layer1): Linear(in_features=2048, out_features=8192, bias=False)
          (layer2): Linear(in_features=8192, out_features=2048, bias=False)
        )
        (adaln_modulation_self_attn): Sequential(
          (0): SiLU()
          (1): Linear(in_features=2048, out_features=256, bias=False)
          (2): Linear(in_features=256, out_features=6144, bias=False)
        )
        (adaln_modulation_cross_attn): Sequential(
          (0): SiLU()
          (1): Linear(in_features=2048, out_features=256, bias=False)
          (2): Linear(in_features=256, out_features=6144, bias=False)
        )
        (adaln_modulation_mlp): Sequential(
          (0): SiLU()
          (1): Linear(in_features=2048, out_features=256, bias=False)
          (2): Linear(in_features=256, out_features=6144, bias=False)
        )
      )
    )
  )
  (final_layer): CheckpointWrapper(
    (_checkpoint_wrapped_module): CheckpointWrapper(
      (_checkpoint_wrapped_module): CheckpointWrapper(
        (_checkpoint_wrapped_module): CheckpointWrapper(
          (_checkpoint_wrapped_module): CheckpointWrapper(
            (_checkpoint_wrapped_module): CheckpointWrapper(
              (_checkpoint_wrapped_module): FinalLayer(
                (layer_norm): LayerNorm((2048,), eps=1e-06, elementwise_affine=False)
                (linear): Linear(in_features=2048, out_features=64, bias=False)
                (adaln_modulation): Sequential(
                  (0): SiLU()
                  (1): Linear(in_features=2048, out_features=256, bias=False)
                  (2): Linear(in_features=256, out_features=4096, bias=False)
                )
              )
            )
          )
        )
      )
    )
  )
  (t_embedding_norm): RMSNorm()
  (crossattn_proj): Sequential(
    (0): Linear(in_features=100352, out_features=1024, bias=True)
    (1): GELU(approximate='none')
  )
  (control_embedder): ModuleList(
    (0-3): 4 x PatchEmbed(
      (proj): Sequential(
        (0): Rearrange('b c (t r) (h m) (w n) -> b t h w (c r m n)', r=1, m=2, n=2)
        (1): Linear(in_features=520, out_features=2048, bias=False)
      )
    )
  )
  (control_blocks_0): ModuleList(
    (0): CheckpointWrapper(
      (_checkpoint_wrapped_module): ControlEncoderDiTBlock(
        (layer_norm_self_attn): LayerNorm((2048,), eps=1e-06, elementwise_affine=False)
        (self_attn): Attention(
          (q_proj): Linear(in_features=2048, out_features=2048, bias=False)
          (q_norm): RMSNorm()
          (k_proj): Linear(in_features=2048, out_features=2048, bias=False)
          (k_norm): RMSNorm()
          (v_proj): Linear(in_features=2048, out_features=2048, bias=False)
          (v_norm): Identity()
          (output_proj): Linear(in_features=2048, out_features=2048, bias=False)
          (output_dropout): Identity()
          (attn_op): MinimalA2AAttnOp()
        )
        (layer_norm_cross_attn): LayerNorm((2048,), eps=1e-06, elementwise_affine=False)
        (cross_attn): Attention(
          (q_proj): Linear(in_features=2048, out_features=2048, bias=False)
          (q_norm): RMSNorm()
          (k_proj): Linear(in_features=1024, out_features=2048, bias=False)
          (k_norm): RMSNorm()
          (v_proj): Linear(in_features=1024, out_features=2048, bias=False)
          (v_norm): Identity()
          (output_proj): Linear(in_features=2048, out_features=2048, bias=False)
          (output_dropout): Identity()
          (attn_op): MinimalA2AAttnOp()
        )
        (layer_norm_mlp): LayerNorm((2048,), eps=1e-06, elementwise_affine=False)
        (mlp): GPT2FeedForward(
          (activation): GELU(approximate='none')
          (layer1): Linear(in_features=2048, out_features=8192, bias=False)
          (layer2): Linear(in_features=8192, out_features=2048, bias=False)
        )
        (adaln_modulation_self_attn): Sequential(
          (0): SiLU()
          (1): Linear(in_features=2048, out_features=256, bias=False)
          (2): Linear(in_features=256, out_features=6144, bias=False)
        )
        (adaln_modulation_cross_attn): Sequential(
          (0): SiLU()
          (1): Linear(in_features=2048, out_features=256, bias=False)
          (2): Linear(in_features=256, out_features=6144, bias=False)
        )
        (adaln_modulation_mlp): Sequential(
          (0): SiLU()
          (1): Linear(in_features=2048, out_features=256, bias=False)
          (2): Linear(in_features=256, out_features=6144, bias=False)
        )
        (before_proj): Linear(in_features=2048, out_features=2048, bias=True)
        (after_proj): Linear(in_features=2048, out_features=2048, bias=True)
      )
    )
    (1-3): 3 x CheckpointWrapper(
      (_checkpoint_wrapped_module): ControlEncoderDiTBlock(
        (layer_norm_self_attn): LayerNorm((2048,), eps=1e-06, elementwise_affine=False)
        (self_attn): Attention(
          (q_proj): Linear(in_features=2048, out_features=2048, bias=False)
          (q_norm): RMSNorm()
          (k_proj): Linear(in_features=2048, out_features=2048, bias=False)
          (k_norm): RMSNorm()
          (v_proj): Linear(in_features=2048, out_features=2048, bias=False)
          (v_norm): Identity()
          (output_proj): Linear(in_features=2048, out_features=2048, bias=False)
          (output_dropout): Identity()
          (attn_op): MinimalA2AAttnOp()
        )
        (layer_norm_cross_attn): LayerNorm((2048,), eps=1e-06, elementwise_affine=False)
        (cross_attn): Attention(
          (q_proj): Linear(in_features=2048, out_features=2048, bias=False)
          (q_norm): RMSNorm()
          (k_proj): Linear(in_features=1024, out_features=2048, bias=False)
          (k_norm): RMSNorm()
          (v_proj): Linear(in_features=1024, out_features=2048, bias=False)
          (v_norm): Identity()
          (output_proj): Linear(in_features=2048, out_features=2048, bias=False)
          (output_dropout): Identity()
          (attn_op): MinimalA2AAttnOp()
        )
        (layer_norm_mlp): LayerNorm((2048,), eps=1e-06, elementwise_affine=False)
        (mlp): GPT2FeedForward(
          (activation): GELU(approximate='none')
          (layer1): Linear(in_features=2048, out_features=8192, bias=False)
          (layer2): Linear(in_features=8192, out_features=2048, bias=False)
        )
        (adaln_modulation_self_attn): Sequential(
          (0): SiLU()
          (1): Linear(in_features=2048, out_features=256, bias=False)
          (2): Linear(in_features=256, out_features=6144, bias=False)
        )
        (adaln_modulation_cross_attn): Sequential(
          (0): SiLU()
          (1): Linear(in_features=2048, out_features=256, bias=False)
          (2): Linear(in_features=256, out_features=6144, bias=False)
        )
        (adaln_modulation_mlp): Sequential(
          (0): SiLU()
          (1): Linear(in_features=2048, out_features=256, bias=False)
          (2): Linear(in_features=256, out_features=6144, bias=False)
        )
        (after_proj): Linear(in_features=2048, out_features=2048, bias=True)
      )
    )
  )
  (control_blocks_1): ModuleList(
    (0): CheckpointWrapper(
      (_checkpoint_wrapped_module): ControlEncoderDiTBlock(
        (layer_norm_self_attn): LayerNorm((2048,), eps=1e-06, elementwise_affine=False)
        (self_attn): Attention(
          (q_proj): Linear(in_features=2048, out_features=2048, bias=False)
          (q_norm): RMSNorm()
          (k_proj): Linear(in_features=2048, out_features=2048, bias=False)
          (k_norm): RMSNorm()
          (v_proj): Linear(in_features=2048, out_features=2048, bias=False)
          (v_norm): Identity()
          (output_proj): Linear(in_features=2048, out_features=2048, bias=False)
          (output_dropout): Identity()
          (attn_op): MinimalA2AAttnOp()
        )
        (layer_norm_cross_attn): LayerNorm((2048,), eps=1e-06, elementwise_affine=False)
        (cross_attn): Attention(
          (q_proj): Linear(in_features=2048, out_features=2048, bias=False)
          (q_norm): RMSNorm()
          (k_proj): Linear(in_features=1024, out_features=2048, bias=False)
          (k_norm): RMSNorm()
          (v_proj): Linear(in_features=1024, out_features=2048, bias=False)
          (v_norm): Identity()
          (output_proj): Linear(in_features=2048, out_features=2048, bias=False)
          (output_dropout): Identity()
          (attn_op): MinimalA2AAttnOp()
        )
        (layer_norm_mlp): LayerNorm((2048,), eps=1e-06, elementwise_affine=False)
        (mlp): GPT2FeedForward(
          (activation): GELU(approximate='none')
          (layer1): Linear(in_features=2048, out_features=8192, bias=False)
          (layer2): Linear(in_features=8192, out_features=2048, bias=False)
        )
        (adaln_modulation_self_attn): Sequential(
          (0): SiLU()
          (1): Linear(in_features=2048, out_features=256, bias=False)
          (2): Linear(in_features=256, out_features=6144, bias=False)
        )
        (adaln_modulation_cross_attn): Sequential(
          (0): SiLU()
          (1): Linear(in_features=2048, out_features=256, bias=False)
          (2): Linear(in_features=256, out_features=6144, bias=False)
        )
        (adaln_modulation_mlp): Sequential(
          (0): SiLU()
          (1): Linear(in_features=2048, out_features=256, bias=False)
          (2): Linear(in_features=256, out_features=6144, bias=False)
        )
        (before_proj): Linear(in_features=2048, out_features=2048, bias=True)
        (after_proj): Linear(in_features=2048, out_features=2048, bias=True)
      )
    )
    (1-3): 3 x CheckpointWrapper(
      (_checkpoint_wrapped_module): ControlEncoderDiTBlock(
        (layer_norm_self_attn): LayerNorm((2048,), eps=1e-06, elementwise_affine=False)
        (self_attn): Attention(
          (q_proj): Linear(in_features=2048, out_features=2048, bias=False)
          (q_norm): RMSNorm()
          (k_proj): Linear(in_features=2048, out_features=2048, bias=False)
          (k_norm): RMSNorm()
          (v_proj): Linear(in_features=2048, out_features=2048, bias=False)
          (v_norm): Identity()
          (output_proj): Linear(in_features=2048, out_features=2048, bias=False)
          (output_dropout): Identity()
          (attn_op): MinimalA2AAttnOp()
        )
        (layer_norm_cross_attn): LayerNorm((2048,), eps=1e-06, elementwise_affine=False)
        (cross_attn): Attention(
          (q_proj): Linear(in_features=2048, out_features=2048, bias=False)
          (q_norm): RMSNorm()
          (k_proj): Linear(in_features=1024, out_features=2048, bias=False)
          (k_norm): RMSNorm()
          (v_proj): Linear(in_features=1024, out_features=2048, bias=False)
          (v_norm): Identity()
          (output_proj): Linear(in_features=2048, out_features=2048, bias=False)
          (output_dropout): Identity()
          (attn_op): MinimalA2AAttnOp()
        )
        (layer_norm_mlp): LayerNorm((2048,), eps=1e-06, elementwise_affine=False)
        (mlp): GPT2FeedForward(
          (activation): GELU(approximate='none')
          (layer1): Linear(in_features=2048, out_features=8192, bias=False)
          (layer2): Linear(in_features=8192, out_features=2048, bias=False)
        )
        (adaln_modulation_self_attn): Sequential(
          (0): SiLU()
          (1): Linear(in_features=2048, out_features=256, bias=False)
          (2): Linear(in_features=256, out_features=6144, bias=False)
        )
        (adaln_modulation_cross_attn): Sequential(
          (0): SiLU()
          (1): Linear(in_features=2048, out_features=256, bias=False)
          (2): Linear(in_features=256, out_features=6144, bias=False)
        )
        (adaln_modulation_mlp): Sequential(
          (0): SiLU()
          (1): Linear(in_features=2048, out_features=256, bias=False)
          (2): Linear(in_features=256, out_features=6144, bias=False)
        )
        (after_proj): Linear(in_features=2048, out_features=2048, bias=True)
      )
    )
  )
  (control_blocks_2): ModuleList(
    (0): CheckpointWrapper(
      (_checkpoint_wrapped_module): ControlEncoderDiTBlock(
        (layer_norm_self_attn): LayerNorm((2048,), eps=1e-06, elementwise_affine=False)
        (self_attn): Attention(
          (q_proj): Linear(in_features=2048, out_features=2048, bias=False)
          (q_norm): RMSNorm()
          (k_proj): Linear(in_features=2048, out_features=2048, bias=False)
          (k_norm): RMSNorm()
          (v_proj): Linear(in_features=2048, out_features=2048, bias=False)
          (v_norm): Identity()
          (output_proj): Linear(in_features=2048, out_features=2048, bias=False)
          (output_dropout): Identity()
          (attn_op): MinimalA2AAttnOp()
        )
        (layer_norm_cross_attn): LayerNorm((2048,), eps=1e-06, elementwise_affine=False)
        (cross_attn): Attention(
          (q_proj): Linear(in_features=2048, out_features=2048, bias=False)
          (q_norm): RMSNorm()
          (k_proj): Linear(in_features=1024, out_features=2048, bias=False)
          (k_norm): RMSNorm()
          (v_proj): Linear(in_features=1024, out_features=2048, bias=False)
          (v_norm): Identity()
          (output_proj): Linear(in_features=2048, out_features=2048, bias=False)
          (output_dropout): Identity()
          (attn_op): MinimalA2AAttnOp()
        )
        (layer_norm_mlp): LayerNorm((2048,), eps=1e-06, elementwise_affine=False)
        (mlp): GPT2FeedForward(
          (activation): GELU(approximate='none')
          (layer1): Linear(in_features=2048, out_features=8192, bias=False)
          (layer2): Linear(in_features=8192, out_features=2048, bias=False)
        )
        (adaln_modulation_self_attn): Sequential(
          (0): SiLU()
          (1): Linear(in_features=2048, out_features=256, bias=False)
          (2): Linear(in_features=256, out_features=6144, bias=False)
        )
        (adaln_modulation_cross_attn): Sequential(
          (0): SiLU()
          (1): Linear(in_features=2048, out_features=256, bias=False)
          (2): Linear(in_features=256, out_features=6144, bias=False)
        )
        (adaln_modulation_mlp): Sequential(
          (0): SiLU()
          (1): Linear(in_features=2048, out_features=256, bias=False)
          (2): Linear(in_features=256, out_features=6144, bias=False)
        )
        (before_proj): Linear(in_features=2048, out_features=2048, bias=True)
        (after_proj): Linear(in_features=2048, out_features=2048, bias=True)
      )
    )
    (1-3): 3 x CheckpointWrapper(
      (_checkpoint_wrapped_module): ControlEncoderDiTBlock(
        (layer_norm_self_attn): LayerNorm((2048,), eps=1e-06, elementwise_affine=False)
        (self_attn): Attention(
          (q_proj): Linear(in_features=2048, out_features=2048, bias=False)
          (q_norm): RMSNorm()
          (k_proj): Linear(in_features=2048, out_features=2048, bias=False)
          (k_norm): RMSNorm()
          (v_proj): Linear(in_features=2048, out_features=2048, bias=False)
          (v_norm): Identity()
          (output_proj): Linear(in_features=2048, out_features=2048, bias=False)
          (output_dropout): Identity()
          (attn_op): MinimalA2AAttnOp()
        )
        (layer_norm_cross_attn): LayerNorm((2048,), eps=1e-06, elementwise_affine=False)
        (cross_attn): Attention(
          (q_proj): Linear(in_features=2048, out_features=2048, bias=False)
          (q_norm): RMSNorm()
          (k_proj): Linear(in_features=1024, out_features=2048, bias=False)
          (k_norm): RMSNorm()
          (v_proj): Linear(in_features=1024, out_features=2048, bias=False)
          (v_norm): Identity()
          (output_proj): Linear(in_features=2048, out_features=2048, bias=False)
          (output_dropout): Identity()
          (attn_op): MinimalA2AAttnOp()
        )
        (layer_norm_mlp): LayerNorm((2048,), eps=1e-06, elementwise_affine=False)
        (mlp): GPT2FeedForward(
          (activation): GELU(approximate='none')
          (layer1): Linear(in_features=2048, out_features=8192, bias=False)
          (layer2): Linear(in_features=8192, out_features=2048, bias=False)
        )
        (adaln_modulation_self_attn): Sequential(
          (0): SiLU()
          (1): Linear(in_features=2048, out_features=256, bias=False)
          (2): Linear(in_features=256, out_features=6144, bias=False)
        )
        (adaln_modulation_cross_attn): Sequential(
          (0): SiLU()
          (1): Linear(in_features=2048, out_features=256, bias=False)
          (2): Linear(in_features=256, out_features=6144, bias=False)
        )
        (adaln_modulation_mlp): Sequential(
          (0): SiLU()
          (1): Linear(in_features=2048, out_features=256, bias=False)
          (2): Linear(in_features=256, out_features=6144, bias=False)
        )
        (after_proj): Linear(in_features=2048, out_features=2048, bias=True)
      )
    )
  )
  (control_blocks_3): ModuleList(
    (0): CheckpointWrapper(
      (_checkpoint_wrapped_module): ControlEncoderDiTBlock(
        (layer_norm_self_attn): LayerNorm((2048,), eps=1e-06, elementwise_affine=False)
        (self_attn): Attention(
          (q_proj): Linear(in_features=2048, out_features=2048, bias=False)
          (q_norm): RMSNorm()
          (k_proj): Linear(in_features=2048, out_features=2048, bias=False)
          (k_norm): RMSNorm()
          (v_proj): Linear(in_features=2048, out_features=2048, bias=False)
          (v_norm): Identity()
          (output_proj): Linear(in_features=2048, out_features=2048, bias=False)
          (output_dropout): Identity()
          (attn_op): MinimalA2AAttnOp()
        )
        (layer_norm_cross_attn): LayerNorm((2048,), eps=1e-06, elementwise_affine=False)
        (cross_attn): Attention(
          (q_proj): Linear(in_features=2048, out_features=2048, bias=False)
          (q_norm): RMSNorm()
          (k_proj): Linear(in_features=1024, out_features=2048, bias=False)
          (k_norm): RMSNorm()
          (v_proj): Linear(in_features=1024, out_features=2048, bias=False)
          (v_norm): Identity()
          (output_proj): Linear(in_features=2048, out_features=2048, bias=False)
          (output_dropout): Identity()
          (attn_op): MinimalA2AAttnOp()
        )
        (layer_norm_mlp): LayerNorm((2048,), eps=1e-06, elementwise_affine=False)
        (mlp): GPT2FeedForward(
          (activation): GELU(approximate='none')
          (layer1): Linear(in_features=2048, out_features=8192, bias=False)
          (layer2): Linear(in_features=8192, out_features=2048, bias=False)
        )
        (adaln_modulation_self_attn): Sequential(
          (0): SiLU()
          (1): Linear(in_features=2048, out_features=256, bias=False)
          (2): Linear(in_features=256, out_features=6144, bias=False)
        )
        (adaln_modulation_cross_attn): Sequential(
          (0): SiLU()
          (1): Linear(in_features=2048, out_features=256, bias=False)
          (2): Linear(in_features=256, out_features=6144, bias=False)
        )
        (adaln_modulation_mlp): Sequential(
          (0): SiLU()
          (1): Linear(in_features=2048, out_features=256, bias=False)
          (2): Linear(in_features=256, out_features=6144, bias=False)
        )
        (before_proj): Linear(in_features=2048, out_features=2048, bias=True)
        (after_proj): Linear(in_features=2048, out_features=2048, bias=True)
      )
    )
    (1-3): 3 x CheckpointWrapper(
      (_checkpoint_wrapped_module): ControlEncoderDiTBlock(
        (layer_norm_self_attn): LayerNorm((2048,), eps=1e-06, elementwise_affine=False)
        (self_attn): Attention(
          (q_proj): Linear(in_features=2048, out_features=2048, bias=False)
          (q_norm): RMSNorm()
          (k_proj): Linear(in_features=2048, out_features=2048, bias=False)
          (k_norm): RMSNorm()
          (v_proj): Linear(in_features=2048, out_features=2048, bias=False)
          (v_norm): Identity()
          (output_proj): Linear(in_features=2048, out_features=2048, bias=False)
          (output_dropout): Identity()
          (attn_op): MinimalA2AAttnOp()
        )
        (layer_norm_cross_attn): LayerNorm((2048,), eps=1e-06, elementwise_affine=False)
        (cross_attn): Attention(
          (q_proj): Linear(in_features=2048, out_features=2048, bias=False)
          (q_norm): RMSNorm()
          (k_proj): Linear(in_features=1024, out_features=2048, bias=False)
          (k_norm): RMSNorm()
          (v_proj): Linear(in_features=1024, out_features=2048, bias=False)
          (v_norm): Identity()
          (output_proj): Linear(in_features=2048, out_features=2048, bias=False)
          (output_dropout): Identity()
          (attn_op): MinimalA2AAttnOp()
        )
        (layer_norm_mlp): LayerNorm((2048,), eps=1e-06, elementwise_affine=False)
        (mlp): GPT2FeedForward(
          (activation): GELU(approximate='none')
          (layer1): Linear(in_features=2048, out_features=8192, bias=False)
          (layer2): Linear(in_features=8192, out_features=2048, bias=False)
        )
        (adaln_modulation_self_attn): Sequential(
          (0): SiLU()
          (1): Linear(in_features=2048, out_features=256, bias=False)
          (2): Linear(in_features=256, out_features=6144, bias=False)
        )
        (adaln_modulation_cross_attn): Sequential(
          (0): SiLU()
          (1): Linear(in_features=2048, out_features=256, bias=False)
          (2): Linear(in_features=256, out_features=6144, bias=False)
        )
        (adaln_modulation_mlp): Sequential(
          (0): SiLU()
          (1): Linear(in_features=2048, out_features=256, bias=False)
          (2): Linear(in_features=256, out_features=6144, bias=False)
        )
        (after_proj): Linear(in_features=2048, out_features=2048, bias=True)
      )
    )
  )
)
[12-15 18:27:35|INFO|cosmos_transfer2_5/cosmos_transfer2/_src/imaginaire/utils/misc.py:268:__exit__] Time spent on instantiate model: 36.0553 seconds
[12-15 18:27:35|INFO|cosmos_transfer2_5/cosmos_transfer2/_src/predict2/utils/model_loader.py:222:load_model_state_dict_from_checkpoint] Loading model cached locally from /home/nvidia/.cache/huggingface/hub/models--nvidia--Cosmos-Transfer2.5-2B/snapshots/bd963eabcfc2d61dc4ea365cacf41d45ac480aa5/general/edge/ecd0ba00-d598-4f94-aa09-e8627899c431_ema_bf16.pt
…
